Assignment #1/lastest.pt (torch_old, 163879 bytes, 52 tensors)

conv1.weight f4 [6, 3, 5, 5]
000000 b6 ce 85 3e 22 f6 ed 3c a6 23 23 be 77 ca 8d bc
       0.2613427 0.02904803 -0.15931568 -0.017308457
000010 cc de 9d 3e 7e 57 dc be 9c 21 5e bf 92 d0 8c bf
       0.30834043 -0.430355 -0.86770034 -1.1001151
000020 e4 88 4d bf 9f f4 90 be 2b ac ca be 96 a0 90 bf
       -0.80287004 -0.2831163 -0.3958448 -1.1299007
000030 16 9d 84 bf 20 85 53 bf 85 3d 98 be 3d af d7 be
       -1.0360439 -0.8262501 -0.29734436 -0.42125884
000040 02 6f 26 bf 48 1b e8 be 1d a7 5f be d0 1e f7 3d
       -0.65013134 -0.45333314 -0.21841092 0.12066424
000050 d7 f4 c7 be 45 28 e7 bd 29 c9 aa be 7a 50 9f be
       -0.39053985 -0.11286978 -0.33356598 -0.31116086
000060 43 25 d8 be b4 5f 46 3e 8a bc d7 3e 12 fa cb 3e
       -0.42215928 0.19372445 0.4213603 0.39839226
000070 f7 c3 b2 3e 9f 57 0b 3e 03 0c 18 be 06 e2 2c 3d
       0.34915134 0.13607644 -0.14848332 0.04220774
000080 5e 7b 19 3d 65 d3 06 3c c2 ee 84 bd a5 44 03 3d
       0.037471168 0.008229111 -0.06490852 0.032047886
000090 e2 20 4e 3d 31 17 99 3d fe 48 65 bd 6c a9 54 bd
       0.05032433 0.074751265 -0.055977814 -0.051919386
0000a0 b3 68 bb bc 7a 4b 2d 3e 13 58 86 3e 46 4c 73 bd
       -0.022877073 0.16923323 0.2623907 -0.059398912
0000b0 b0 fc ec bc f9 9b 1b be 19 92 d3 3e aa c8 9c 3e
       -0.028929085 -0.15196218 0.413224 0.30621845
0000c0 65 d8 7c be 39 45 8a be dc dd b5 3e 00 c8 36 3f
       -0.24691923 -0.27005938 0.35520828 0.71398926
0000d0 79 f8 39 3f 52 09 54 3e fc 3c 4e be 8c 45 a7 3e
       0.72644764 0.2070668 -0.20140451 0.32670248
0000e0 c5 97 e0 3e 76 6f 0f 3f 85 dd 14 3e b2 f7 99 bd
       0.4386579 0.5602945 0.14537628 -0.07517947
0000f0 e0 e3 10 3f 90 e5 09 3f 65 1c 1a 3f 24 3e 84 3e
       0.5659771 0.5386591 0.60199577 0.2582866
000100 37 4f f1 bb 4e 22 74 3e e5 4a 05 3f fc 76 2c 3f
       -0.0073641795 0.23841211 0.52067405 0.67369056
000110 bf 1c 7e 3e e2 b8 f1 bc a3 ee 2c 3e 9f 47 32 3f
       0.24815653 -0.029507104 0.16887908 0.69640535
000120 ce 0f df 3e 61 81 2b be 6d ce b2 be fd 26 d3 3d
       0.43566746 -0.16748573 -0.34923115 0.10310171
000130 33 84 10 3e fb 33 2e be ce 32 e5 be 38 55 6d bd
       0.1411293 -0.17012016 -0.44765323 -0.0579426
000140 a6 e6 6e 3e ae ce b2 be 4e 34 85 be 02 9a b5 be
       0.23330173 -0.3492331 -0.26016468 -0.3546906
000150 27 8a f5 bb 82 51 b2 bd e6 ee b0 bd 67 ab e3 3e
       -0.0074932757 -0.08706953 -0.08639316 0.44466707
000160 0f bc b4 3f ce 54 dc 3e 13 ba f1 3e 78 e1 f9 3e
       1.4119891 0.4303345 0.47212276 0.48804832
000170 a3 d9 e5 3e 2d 9e 8a 3e 27 93 17 3e ca 89 bf 3e
       0.44892606 0.27073804 0.14802228 0.37409812
000180 d7 c4 4a 3e 22 8c 6c bd 8d 20 28 bf 45 9e 4a be
       0.19801651 -0.05775083 -0.6567467 -0.19786938
000190 b5 d5 51 be 0a dc 53 3e ab cc 90 bd 34 7b c8 be
       -0.20491679 0.20689407 -0.07070287 -0.39156497
0001a0 59 33 91 be da 00 7c bd 12 d9 a6 be 12 e8 45 be
       -0.28359488 -0.06152425 -0.32587487 -0.19326809
0001b0 aa 58 0e be ba 09 35 3d dd aa ee be 97 94 91 be
       -0.1390101 0.04419873 -0.46614733 -0.28433678
0001c0 65 c7 bb 3e 6d fb af 3f b5 86 06 3f de 01 80 bd
       0.36675563 1.3748604 0.52549297 -0.06250356
0001d0 f4 48 a2 3a db 2a 20 3d c6 9c 83 be 48 44 19 be
       0.0012381361 0.03910337 -0.25705546 -0.14967453
0001e0 b2 10 ab 3d 9c 7a 2b bc 86 db f4 be fb 3c 81 bf
       0.08352794 -0.010466244 -0.47823733 -1.0096735
0001f0 5f 03 03 bf cd b5 86 be 9b bb cd 3e 87 8d 21 3f
       -0.5117702 -0.26310578 0.40182194 0.6310658
000200 12 72 63 3f 7e d6 48 3f 3f ce 6d bd 41 c9 82 bd
       0.8884593 0.7845229 -0.05805802 -0.063860424
000210 78 94 c0 3a 5c f9 fe 3e ad fd d7 3e 3f db 36 be
       0.0014692685 0.4979962 0.42185727 -0.17857073
000220 a9 8c 2b be 24 13 94 3e e0 71 6e 3f 55 e2 bc 3e
       -0.16752876 0.28920853 0.9314251 0.36891428
000230 9f 32 13 be f5 84 4e 3d 34 eb 9b 3d 77 f1 19 bf
       -0.14374779 0.050419766 0.07613221 -0.6013407
000240 c7 22 c9 be 50 62 99 ba 13 4e a2 3e 9d 50 9c be
       -0.39284346 -0.0011702273 0.3170019 -0.30530253
000250 f5 ad 6a bf a1 bd 51 be a4 84 a4 be 60 2d 91 be
       -0.9167169 -0.20482494 -0.32132447 -0.2835493
000260 3f e0 eb be 69 21 ba bd ea e2 31 3e 98 01 71 be
       -0.46069524 -0.09088404 0.17371717 -0.23535764
000270 00 04 bb 3d 58 46 90 3e 89 d1 f2 be c0 14 a8 bf
       0.09131622 0.28178668 -0.47425488 -1.3131332
000280 a0 12 8d bc f7 1a cf 39 59 6a 83 bd af e9 08 bf
       -0.017220795 0.00039502207 -0.064167686 -0.5348157
000290 8d b7 a6 bf 1e 0a 97 3d f6 d3 15 be bf 8b 21 bf
       -1.3024765 0.073749766 -0.14631638 -0.6310386
0002a0 50 68 55 bc b1 a8 42 3f 49 dc 7d 3b de 10 5e 3d
       -0.013025358 0.7603865 0.0038736037 0.054215305
0002b0 8b fe f0 3d 35 2f d0 3e 92 da 35 3f 58 8a 62 3e
       0.117673 0.40661016 0.71036637 0.22123086
0002c0 38 d7 33 3e 38 19 53 3e 1e 25 b9 3e a7 b1 29 3f
       0.17562568 0.20615089 0.3616113 0.662867
0002d0 fb c3 a4 3d 5c 29 d5 3e b7 0f 23 3f c1 63 2b 3d
       0.08045193 0.41633117 0.63695854 0.04184318
0002e0 30 a8 ef be 33 52 b4 bc 52 29 63 bd e9 3a de 3e
       -0.46808004 -0.022011852 -0.055459328 0.4340432
0002f0 25 fd de 3d 7c f2 35 bf d9 91 8d 3d e5 d5 fd 3d
       0.10888127 -0.71073127 0.06912584 0.12394313
000300 db 11 33 be eb 51 9a 3e 9b 65 85 3f fd b1 5f 3e
       -0.1748728 0.30140623 1.0421633 0.21845241
000310 a5 28 6f 3e 92 70 c6 3e a6 e9 f9 3e 62 e5 d8 3e
       0.23355348 0.3875776 0.48811072 0.42362505
000320 cc b5 37 3d ea 0f 13 be 6f b9 31 be 7c da ff be
       0.04485111 -0.1436154 -0.17355894 -0.49971378
000330 90 03 e2 bd 34 b6 33 3e 68 85 a0 3e 14 f0 b4 3e
       -0.11035836 0.17549974 0.3135178 0.35339415
000340 15 44 e2 be 8c 3c 66 bf 87 40 e3 3d 23 9a f4 bd
       -0.44192567 -0.8993614 0.11096292 -0.11943462
000350 68 23 29 3e c2 38 b9 be be 57 69 bf b2 54 66 bc
       0.16517413 -0.36176115 -0.9114951 -0.014058279
000360 5b 78 a8 be 3d b8 db be 88 ee d7 3d 60 d0 0d 3f
       -0.32904324 -0.42914 0.10543543 0.5539608
000370 d0 d9 98 be bd 36 fb bd 33 6e 53 3d 54 fe b2 3e
       -0.29853678 -0.122663 0.051618766 0.34959662
000380 90 1d 45 3e 30 6a d3 3d 3d 61 90 be ac 94 d8 3e
       0.19249558 0.10322988 -0.28199187 0.42300928
000390 9f cc 12 be c2 af 8f 3e d2 c9 42 3e ef d0 2b bf
       -0.14335869 0.2806378 0.19022301 -0.6711568
0003a0 82 b5 57 3f 96 b2 81 be 50 0d 97 3d d3 45 2f 3e
       0.84261334 -0.25331563 0.07375586 0.1711648
0003b0 f1 b7 44 bf 75 89 59 3f 2e ce 81 be ba 5a eb bd
       -0.7684317 0.8497537 -0.25352615 -0.11491914
0003c0 15 8e 50 3e d6 c8 e5 be fe ca 13 3f 36 1f 71 be
       0.203667 -0.44879788 0.57731616 -0.23547062
0003d0 80 30 a2 bd 26 d1 9c 3d cd b9 af be 7b a5 93 3e
       -0.07919407 0.076570794 -0.34321442 0.2883719
0003e0 0c 78 4f be d7 b9 28 bd d4 ef 1a 3e ef d4 ea be
       -0.20260638 -0.041192856 0.1513055 -0.4586558
0003f0 5a e4 ac 3e 43 43 a6 be a7 de 12 be a4 95 a1 3e
       0.33767968 -0.32473192 -0.14342748 0.3155948

conv1.bias f4 [6]
000000 e4 33 31 bf 72 8b 9b 3e dc a7 e0 3a c4 4c 1d 3b
       -0.69219804 0.30379826 0.001713987 0.0024002055
000010 70 7e b9 be dc 27 02 bf
       -0.36229277 -0.5084207

batchnorm1.weight f4 [6]
000000 26 dc f7 3e dd 7e 1c 3f ae 7f 38 3f f9 7c 10 3f
       0.48410147 0.6113108 0.72069824 0.56440693
000010 54 b1 29 3f 85 b9 06 3f
       0.66286206 0.5262683

batchnorm1.bias f4 [6]
000000 4a 33 82 3e 4c 1c ee 3e ba 17 de 3e fa 54 61 3c
       0.25429755 0.46505964 0.43377477 0.01375317
000010 a6 81 47 3e cc 72 10 3e
       0.1948305 0.14106292

batchnorm1.running_mean f4 [6]
000000 d7 5b c4 bf fc 54 3c 3e 30 df 6f 3d f2 c4 44 3c
       -1.5340527 0.18391794 0.058562458 0.012009846
000010 dc 21 c3 be b5 8b fb be
       -0.3811177 -0.49130026

batchnorm1.running_var f4 [6]
000000 50 7a 04 41 40 be 70 40 6a ef 2e 40 c6 b7 3f 3f
       8.279861 3.761612 2.7333627 0.7488979
000010 50 73 92 40 5a 6f 3a 3f
       4.576576 0.7282616

conv2.weight f4 [16, 6, 3, 3]
000000 dd b4 7a 3f 01 03 5a 3e 8a 99 76 bc b4 f5 d8 3b
       0.97932225 0.21290208 -0.015051255 0.006621087
000010 cc 1d 1e 3e 3d a8 de be b1 40 b1 be 01 bf 31 3e
       0.15441054 -0.4348773 -0.34619668 0.17358018
000020 f9 9b 1b bf 2f 0e c8 3e f7 db ad 3e 1d 12 c1 be
       -0.6078487 0.3907332 0.33956882 -0.37709132
000030 00 f8 a0 be c8 d8 9b 3e 14 06 13 bd 56 e4 3a be
       -0.3143921 0.30438828 -0.03589447 -0.18251166
000040 8f 8a 29 be 3d a2 96 3e a1 46 d6 be a7 af bc be
       -0.16556762 0.29420653 -0.4185076 -0.36852762
000050 86 e6 4e 3f 7e 82 7d 3e 07 10 70 bf 36 27 e4 3c
       0.808205 0.2475681 -0.93774456 0.027850728
000060 b7 34 0f 3f eb a3 64 be b2 6c d9 be 81 ab fe be
       0.5593981 -0.22328155 -0.4246574 -0.49740222
000070 32 1d f1 bd 85 65 6a be e5 d5 a6 be ae 53 2c bf
       -0.11773147 -0.22890289 -0.32585064 -0.67315185
000080 c3 d3 4d 3e c1 81 04 3e 34 58 2f bd 1c 5b e4 be
       0.20100312 0.12940122 -0.042808726 -0.4460076
000090 90 2b 22 3d 63 f5 d3 bc ff 8d a4 3d 21 dd b0 3d
       0.039592326 -0.025873845 0.08034896 0.08635927
0000a0 c9 1d 15 3e 42 52 93 be 23 43 c3 be 52 e7 1a bf
       0.14562143 -0.28773695 -0.3813716 -0.60509217
0000b0 af 56 17 3e 79 fe d4 3e 76 dc 81 3f ec 1e 68 be
       0.14779161 0.41600397 1.0145404 -0.22668046
0000c0 d9 93 99 3d 93 40 1a 3f a8 d3 36 3f 00 03 ac bd
       0.07498903 0.6025478 0.7141671 -0.0839901
0000d0 37 5a 5d 3e b0 4d 7f 3e 46 ed 02 bf 8f 15 15 be
       0.21616445 0.24931979 -0.511433 -0.14559005
0000e0 be 18 71 be a8 ed 1f 3e 69 e8 d6 3e f2 69 cf 3e
       -0.23544595 0.15618002 0.4197419 0.40510517
0000f0 e0 71 2b bf 33 2b b7 be 70 58 a1 be 17 32 36 3f
       -0.66970634 -0.35775146 -0.31512785 0.7117018
000100 dd 71 13 3f 05 53 5c 3f 61 52 1b bf 2c 1d 3d bf
       0.57595617 0.8606418 -0.60672575 -0.7387264
000110 7f 5d c3 be 90 75 b5 be f7 cd 9c 3e 01 2c e7 3d
       -0.3815727 -0.35441256 0.3062589 0.1128769
000120 bf b2 e9 bd f8 68 6d 3c 17 d7 00 be a5 4c 6d 3e
       -0.11411046 0.0144903585 -0.1258205 0.23173769
000130 7a 00 b4 3d 6d 0d a6 3e 0c e3 97 bd 6e 50 a5 be
       0.087891534 0.32432118 -0.07416353 -0.32287925
000140 d6 16 18 3d 29 13 9a 3e ea e6 f7 3e d9 88 63 3e
       0.037131153 0.30092743 0.4841836 0.22220172
000150 26 2f b3 be 27 ea 1b bf 1e 5b 11 bf 8e 07 3b 3f
       -0.3499691 -0.60904163 -0.5677966 0.730584
000160 b9 a6 40 3e fc 33 42 3e 49 a9 21 be 2b 02 88 3e
       0.188136 0.18965143 -0.15787233 0.26564154
000170 55 de 38 3e cb ad 6d 3e 21 45 09 bd 79 88 9c be
       0.18053563 0.23210828 -0.033513192 -0.3057287
000180 fc a1 15 bd 58 f8 97 bd 07 ab bb 3d e1 af f6 3e
       -0.036531433 -0.07420415 0.0916348 0.4818106
000190 db 12 90 3e 71 16 27 3e 81 fd 94 3e cd 0c 2f bf
       0.28139386 0.16317154 0.29099658 -0.6837891
0001a0 0e 55 f9 be 79 52 fb 3e 2f 00 84 3e 87 66 8e bc
       -0.48697704 0.4908636 0.2578139 -0.017382873
0001b0 f1 e8 96 be aa 2d a5 3d 3d 5b 18 3f 35 54 03 3e
       -0.29474595 0.0806535 0.5951422 0.12825091
0001c0 b6 56 93 be 58 66 49 bf aa 63 d3 3e bd a5 bc bd
       -0.28777093 -0.7867179 0.41286975 -0.092112996
0001d0 24 4b 96 be 38 ae 98 3e 90 42 7d 3e 5a f8 09 3e
       -0.29354203 0.29820418 0.24732423 0.13473645
0001e0 9a 18 5f 3d cd 7b a0 3e c7 09 a2 bd 62 11 37 be
       0.05446682 0.31344453 -0.07912021 -0.17877725
0001f0 cf c6 fd 3c c3 97 3e be 20 a7 2c 3f c8 c8 3f 3f
       0.030978588 -0.1861258 0.6744251 0.7491574
000200 82 88 c8 3e 1e b5 f3 be 77 5c 16 be b5 ed 1b 3f
       0.39166647 -0.4759912 -0.1468371 0.6090959
000210 4b a3 18 bf b3 53 9e bf 5d 83 48 bf 41 01 00 bf
       -0.59624165 -1.2369293 -0.78325444 -0.50001913
000220 6e 45 1c bf ac 7e fc be a3 4b 8f be 2d 9f 28 bf
       -0.6104344 -0.49315393 -0.27987394 -0.6586788
000230 33 11 54 be 30 8d d4 3d 82 49 22 3e 0f 93 91 be
       -0.20709686 0.10378492 0.15848354 -0.2843251
000240 b6 c1 b3 3e c6 c2 db 3c d8 98 92 3d d2 d2 f7 bd
       0.35108727 0.026826274 0.07158059 -0.12100758
000250 17 be 15 3e 77 cc ce 3b ba c8 dc bc b3 24 49 be
       0.14623295 0.006310995 -0.026951183 -0.19642906
000260 89 75 18 3e 07 9b 88 be da 92 7b be 29 84 d5 be
       0.14888586 -0.26680776 -0.24567738 -0.41702393
000270 a4 af 99 be 70 a3 8b be 8b 14 11 3d fb a3 72 3e
       -0.30016816 -0.2727313 0.035419982 0.23695366
000280 15 0f 3a be 54 7a 10 3e 56 ef b6 be 13 5b b2 bc
       -0.18169816 0.14109164 -0.35729474 -0.021771943
000290 44 33 c2 3e 12 d0 29 be d6 6e fb 3d 0f f9 fd 3e
       0.37929738 -0.16583279 0.12277 0.4960408
0002a0 49 f5 96 bc 19 84 8b be b2 a1 ae 3e a6 08 41 3e
       -0.018427508 -0.2724922 0.3410774 0.18850955
0002b0 48 e9 27 3f 15 ae 1e bf 84 28 4c 3f ed 45 a7 bf
       0.65590334 -0.6198438 0.7974932 -1.3068215
0002c0 4d 1a 11 3d 6c 41 7d 3d ca 59 bd bd ac 2f 42 be
       0.035425473 0.06182997 -0.092456415 -0.18963498
0002d0 c8 09 0f bf 1a 8d 85 3e 32 91 f1 3e 5b 81 ba be
       -0.558743 0.26084214 0.47181088 -0.36426815
0002e0 08 9f 86 3f 22 23 10 bf b3 cc e0 3e e7 e2 19 bf
       1.0517282 -0.5630361 0.43906173 -0.6011185
0002f0 88 9c 85 ba 14 5a 2b be e4 de 6f 3e 55 ed a0 be
       -0.0010193745 -0.16733581 0.2342487 -0.3143107
000300 bc 54 bf 3e a7 c9 d3 be a7 0a 04 3f 95 bd 75 bd
       0.37369335 -0.41364786 0.51578754 -0.059995253
000310 54 ec 1b 3e 32 54 a2 bb 29 4c b6 3e 18 73 40 be
       0.15226871 -0.0049538845 0.3560498 -0.18793905
000320 94 72 99 3d 51 01 fe bd 9e de b3 bf 83 f1 ab 3f
       0.07492557 -0.12402595 -1.4052312 1.3433079
000330 f9 e3 f9 be 0b a7 65 3f 12 14 b9 3d e0 24 d0 bd
       -0.48806742 0.8970801 0.09037031 -0.10163283
000340 f4 dd 7e be 65 74 8b bd db 84 85 be 9c 10 88 3d
       -0.24889356 -0.0680931 -0.26077923 0.06643793
000350 52 ab 64 3e 45 34 a0 bd 0b 46 65 3e cc 55 73 be
       0.22330979 -0.078224696 0.2239 -0.23763198
000360 b4 1b f3 3e 94 6c 84 3e 82 97 86 3e 31 1a 61 3e
       0.47482073 0.2586409 0.26287466 0.21982647
000370 9f 52 51 bd a2 1c 97 be d3 c1 91 3e ed ba f5 be
       -0.051104184 -0.29514033 0.2846819 -0.47994176
000380 26 75 94 bf c1 cd fb 3e cb 30 83 3e af dd f4 be
       -1.1598251 0.49180415 0.25623164 -0.4782538
000390 1d 6a 98 3e 3a 75 76 be 12 87 36 bd cc 1f a5 be
       0.29768458 -0.24068156 -0.044562407 -0.32250822
0003a0 bd b0 df 3d c3 ec 65 bf bf cb c5 3d 25 37 5d 3d
       0.10922382 -0.89814395 0.09658002 0.054007668
0003b0 fb 93 04 3e 4f dc 0d 3f 06 91 09 3f a1 0f a0 3c
       0.12947075 0.5541429 0.53736913 0.019538702
0003c0 a5 06 a1 3e 19 9c ad be 33 f0 30 bf 1b 57 94 3e
       0.31450382 -0.33908156 -0.69116515 0.28972706
0003d0 ff 94 13 3f 72 fe 16 3f 48 59 2f 3d 18 f1 ab be
       0.57649225 0.58982 0.042809755 -0.33582377
0003e0 86 50 ee be af ad ac bf d0 8d fd bf a7 dd be bf
       -0.4654581 -1.3490504 -1.9808903 -1.4911393
0003f0 bd c2 cc 3e fa de bb 3e 3f 61 e2 3e 4c 36 a2 be
       0.39992324 0.36693555 0.44214818 -0.3168205

conv2.bias f4 [16]
000000 8f 85 5e 3f 7f 6f 83 3f 06 e5 88 3f 26 26 11 3e
       0.86922544 1.0268401 1.0694892 0.14174709
000010 5b c6 ee 3e 53 0b d6 3e 62 f9 f5 3e 67 22 0e 3f
       0.46635708 0.41805515 0.48041826 0.55521244
000020 74 ac 9f 3f bd ad ee 3e a8 67 b1 3f 7b cc e4 3e
       1.2474504 0.46616927 1.3859758 0.44687256
000030 b3 c5 91 3f 40 d1 c1 3f b3 bd 00 3f c8 6b b8 3f
       1.1388458 1.5141983 0.5028946 1.4407892

conv3.weight f4 [32, 16, 3, 3]
000000 b8 a5 8f bd df 9a c5 be 97 13 c6 3e 4f 07 7d bd
       -0.0701403 -0.3859472 0.3868682 -0.06177455
000010 b8 fd 9e 3e e2 e7 0d 3f bc 49 20 be 3e b9 2b 3e
       0.31052947 0.5543195 -0.15653127 0.16769883
000020 48 5a 3d 3c 80 72 cb be f9 c5 15 3f 4b 6b 35 3f
       0.011557169 -0.39735794 0.5850521 0.7086684
000030 d8 8e 10 bf 26 60 3d 3e 90 0e a5 be 6e 03 b2 bf
       -0.5646796 0.18493709 -0.32237673 -1.3907297
000040 5d d1 9a bd 9e 2f 2c bf a8 60 10 bf 6b f5 83 be
       -0.07559464 -0.6726016 -0.56397486 -0.25773177
000050 88 ff f3 3e d3 4d 19 bf 4d a0 c2 3d 06 09 bf 3e
       0.47655892 -0.59884375 0.09503231 0.37311572
000060 f4 d2 aa bf df 0e aa 3e e1 ad 5f be 7d d6 35 3e
       -1.3345628 0.3321447 -0.21843673 0.17757602
000070 e1 10 0b bf c9 a8 9d 3d 7f 43 53 3e e2 46 70 be
       -0.5432263 0.07698209 0.20631216 -0.2346454
000080 32 cb 60 be 5d 53 c2 be bc a9 de be 77 33 0c 3e
       -0.21952513 -0.37954226 -0.43488872 0.13691507
000090 9c fc 56 bf 57 23 9b bd 6b 9c 27 bf e0 bb 05 bf
       -0.839792 -0.075751 -0.6547305 -0.522398
0000a0 02 1c c7 bc 44 f3 24 bd d9 0d 74 3e 8d 48 03 bf
       -0.024305347 -0.04027106 0.23833407 -0.5128258
0000b0 45 db e0 bc be 74 26 be 0a 01 42 be a0 15 0c 3f
       -0.027448306 -0.16255471 -0.18945709 0.547205
0000c0 55 ad f8 ba 37 4a 12 3e 31 8f 96 3e eb fd 5c be
       -0.0018972555 0.14286123 0.2940612 -0.21581237
0000d0 8d eb 06 3d 01 d8 15 be 58 42 81 bf 18 a8 cd be
       0.032939482 -0.1463318 -1.0098372 -0.40167308
0000e0 5a 49 28 3c 27 de 3e bf cb 05 ce be 2b 08 4a 3e
       0.010271395 -0.7455773 -0.40238795 0.19729678
0000f0 3e 97 fe be 27 a4 00 bf e9 b2 ea be a2 25 88 3e
       -0.49724764 -0.50250477 -0.45839623 0.26591212
000100 58 64 74 3e 2e 97 ce 3d 7a 52 ea be 69 75 94 be
       0.23866403 0.10087429 -0.4576605 -0.28995827
000110 8e ae 42 be 8c 76 0c 3e 4c 92 e4 3e 7a 18 93 bf
       -0.190119 0.13717097 0.44642866 -1.1491845
000120 91 e1 df be 4e 8f 80 3e db 81 06 be 32 a6 0d bf
       -0.4372678 0.25109333 -0.13135473 -0.5533172
000130 e8 e1 9b be e9 e8 cc 3d 44 5d 0c 3f ae 39 58 3e
       -0.3044579 0.100053616 0.5482981 0.21115753
000140 3d 49 79 bd 86 3a e6 bd 6e 5b bf bc ff d5 0a bd
       -0.06086086 -0.11241631 -0.023359027 -0.03389549
000150 44 50 e4 be 23 5d df be 72 71 4d be 62 d9 ae bd
       -0.44592488 -0.43625745 -0.20062807 -0.08537556
000160 2b fd c7 3e 80 13 10 3e e4 c6 52 3f a8 f8 b8 3e
       0.3906034 0.14069939 0.82334733 0.3612721
000170 f6 64 5f bd ac 84 7a 3e ef 22 53 be 02 6b 0a 3f
       -0.054539643 0.24464673 -0.20618795 0.5406953
000180 d6 28 de 3e ff a2 ed be 44 36 0f 3e d7 65 5f bf
       0.4339053 -0.4641342 0.13985544 -0.8726477
000190 e9 53 55 3e 1e a3 f4 3e 46 fa ef be 2a 9e c8 3d
       0.2083279 0.477807 -0.4687063 0.097957924
0001a0 20 91 e4 bd 8a 25 02 bf d0 70 6d 3e 9d a0 27 3f
       -0.11160493 -0.5083853 0.23187566 0.6547945
0001b0 16 b6 68 3e 80 05 5b be 6f d0 46 3f 67 c7 80 3e
       0.2272571 -0.21388817 0.77661794 0.25152132
0001c0 6d 7f 52 be 26 89 27 3f d7 ca af 3d 27 d6 1a bf
       -0.20556422 0.65443647 0.085836105 -0.6048302
0001d0 ab 25 a1 3d f0 ad 27 3f d9 60 79 3f e1 94 57 bf
       0.07868513 0.6549978 0.974134 -0.84211546
0001e0 8b db 9f 3d 60 a5 86 bd 8b 6a 97 3c 03 8d e6 3d
       0.078055464 -0.065745115 0.01848342 0.112573646
0001f0 f4 c2 1a 3e 65 25 37 3e 65 f1 a1 be c3 68 28 bf
       0.15113431 0.17885359 -0.31629482 -0.65784854
000200 b4 0f 49 3f 12 7d 7e bf cb e8 39 3e c5 a2 a9 3e
       0.78539586 -0.9940959 0.1815521 0.33131996
000210 db 48 c3 be 6a 8d 9e be 39 da 22 be ce d5 4c bf
       -0.38141522 -0.30967265 -0.15903558 -0.8001374
000220 d9 ae 6a bd 6a 38 86 bd f9 7e b5 be 48 15 63 3d
       -0.057295654 -0.06553729 -0.35448435 0.055440217
000230 af 56 84 3e 84 e3 95 be 71 0a 04 3f 6e 3c 2a be
       0.25847384 -0.29275143 0.5157843 -0.16624615
000240 74 a7 22 3f 86 22 23 bc 2e 76 2e bf fe f1 ab 3d
       0.63536763 -0.0099569615 -0.6814908 0.08395766
000250 42 59 a6 3e 3b 40 00 bd be 0d 1e bf 08 e6 84 be
       0.32489973 -0.031311255 -0.6173972 -0.2595675
000260 b2 5e 0c bf 31 9c 18 bf 0a 5c 25 3e fa 2f 72 bf
       -0.54831994 -0.5961333 0.16148391 -0.94604456
000270 9e 08 2a bf 1b 1d b9 3e 67 bc 8b be 63 b5 26 bd
       -0.664194 0.36155018 -0.27292177 -0.040700328
000280 cc 55 d4 be c7 08 c9 3d 91 7f 69 3d 02 e9 4a bf
       -0.41471708 0.09816127 0.057006422 -0.7926179
000290 59 0a 0a bf 0a 29 33 be e5 12 f7 be bd c0 1e 3f
       -0.5392204 -0.17496124 -0.48256603 0.62012845
0002a0 63 15 88 be dd 4c 06 bf 5d f9 14 bf 6a dd 6b bf
       -0.26578817 -0.52461034 -0.58193 -0.92134726
0002b0 4c b2 82 be 07 07 5b 3e dd ba 42 be 76 30 2f 3c
       -0.25526655 0.213894 -0.19016595 0.010692706
0002c0 d7 80 dc 3e 79 3c c2 3d 56 92 c4 bd 90 f6 c1 3d
       0.43067047 0.094841905 -0.09598224 0.09470856
0002d0 c9 47 3d be 91 12 36 bf a2 db ab be 27 cf 2c 3e
       -0.18484415 -0.7112208 -0.33566004 0.16875897
0002e0 0b 24 10 bf 3c c5 1d bf ec 4b 6b 3e bc fa e3 3b
       -0.56305 -0.6162908 0.2297818 0.00695738
0002f0 16 b5 54 bf 25 bc 8d 3d 3a 9c 19 3f 39 3a ee bd
       -0.83088815 0.06920651 0.6000401 -0.11632199
000300 e6 51 f3 be ed 12 e5 bd 90 e3 18 be 95 17 87 3e
       -0.4752342 -0.111852504 -0.14930558 0.2638518
000310 98 1c e9 be ae 18 a2 3e 91 22 47 bf de 99 00 bf
       -0.45529628 0.31659454 -0.7778712 -0.5023478
000320 82 53 11 bf 03 94 32 bf ac cf c0 3e 2d ef e6 3c
       -0.5676805 -0.697571 0.3765844 0.02819022
000330 05 5e 00 bf 7f 0d cb be 22 2e 5a 3e ac 62 9c be
       -0.5014346 -0.39658734 0.21306661 -0.3054403
000340 d0 95 53 bf 76 fe fb bd f8 8f 90 be f2 96 66 bf
       -0.8265047 -0.12304394 -0.2823484 -0.90074074
000350 5f 37 44 3e 92 dc 2e 3c 64 19 7f 3e b0 8d 16 3f
       0.19161747 0.010672705 0.2491203 0.5880995
000360 ed 01 db 3e 4a e8 67 3e 18 4c 80 be 23 72 ba be
       0.42774907 0.22647205 -0.25058055 -0.36415204
000370 1d f5 49 3f 0e 0a 86 3e 74 91 4e be 92 4c 69 3f
       0.7888964 0.26179546 -0.20172673 0.9113246
000380 7b 4d 05 3f ad 61 4a bf 22 77 5a bb 86 7a 2d 3e
       0.5207135 -0.7905529 -0.003333517 0.1694127
000390 8a 6b dc be 26 2e 7a 3e 87 d5 89 3e 03 eb 75 3f
       -0.43050796 0.24431667 0.2692072 0.96061724
0003a0 67 87 a2 3d 16 70 90 3e fc f1 59 3e 18 71 89 3e
       0.07935982 0.28210515 0.21283716 0.26844096
0003b0 f4 82 5a be 92 89 5a be 50 e1 27 3f 82 22 da bd
       -0.21339017 -0.21341541 0.65578175 -0.10651113
0003c0 56 10 99 3e 40 58 62 bb a7 4e 47 3e 7c 8c 5c 3c
       0.29895276 -0.0034537464 0.19463597 0.013461228
0003d0 0c ab 8f be f3 63 37 bf 1c 4d 3a 3f 77 14 14 3e
       -0.28060186 -0.71636885 0.7277391 0.14460932
0003e0 de f9 02 3e b5 39 dc bd 3a 9f 89 be 14 27 f2 bd
       0.1279063 -0.10753194 -0.26879293 -0.1182386
0003f0 d3 81 44 be 95 40 7c be c1 fa 09 3e 34 74 73 be
       -0.19190149 -0.24634011 0.13474561 -0.23774797

conv3.bias f4 [32]
000000 d2 81 dd 3e f2 8d b4 3e 10 d4 aa 3e 06 ca 30 3f
       0.43263108 0.35264546 0.33364916 0.69058263
000010 ed 69 8d 3e b0 97 7a 3e 1e 77 e6 3e c9 90 9b 3e
       0.27619877 0.24471927 0.45012754 0.303839
000020 d8 53 76 3e a5 a7 69 3e 49 4a d3 3e e2 11 7d 3e
       0.24055421 0.22817858 0.41267613 0.24713853
000030 67 e2 d2 3e 43 21 2a 3e 64 e7 5b 3f 68 bb 4a 3e
       0.41188356 0.16614251 0.8589995 0.19798052
000040 76 05 bd 3e f1 a3 f5 3e 5a 82 9c 3c 38 63 0e 3f
       0.3691823 0.4797664 0.019105125 0.55620146
000050 db 27 c8 3e ff 3e 71 bd 8c 1c 73 3d ab 8b 8c 3e
       0.39092907 -0.05889797 0.059353396 0.27450308
000060 e3 d4 84 3d 29 95 6f 3d 5c 8d f9 3d 95 ff b0 be
       0.064859174 0.05849186 0.12185165 -0.34569994
000070 db 1f 93 3e b4 01 4e be ec ce 01 3f 99 17 29 3f
       0.2873524 -0.20117837 0.5070636 0.6605163

batchnorm3.weight f4 [32]
000000 ee 6d 1b 3f 11 05 09 3f d1 56 16 3f 99 eb 20 3f
       0.60714614 0.53523356 0.5872622 0.62859493
000010 a8 a8 19 3f 48 f1 0c 3f 1a a0 1a 3f b0 2b f9 3e
       0.60022974 0.55055666 0.60400546 0.48666143
000020 24 f8 f2 3e 21 17 06 3f 1e c9 f8 3e 3c 7b 0a 3f
       0.4745494 0.5237904 0.4859094 0.5409429
000030 2f 5e df 3e 08 e5 d7 3e 0e 7d 10 3f 92 36 05 3f
       0.43626544 0.42166924 0.5644082 0.5203639
000040 cd 88 05 3f 8a c6 0e 3f 6e b2 b8 3e 1f c4 16 3f
       0.52161866 0.55771697 0.3607363 0.5889301
000050 cd e7 f6 3e 5d f4 02 3f ce 6a ed 3e 2b 3f 01 3f
       0.48223725 0.5115412 0.46370548 0.5048701
000060 05 bf eb 3e 0d b3 1c 3f 50 34 dd 3e c8 bc 09 3f
       0.46044174 0.6121071 0.43203974 0.5380368
000070 e9 a0 ef 3e 97 73 0e 3f 56 34 28 3f dd 05 07 3f
       0.46802452 0.55645126 0.6570486 0.5274332

batchnorm3.bias f4 [32]
000000 8b 7a 37 be 61 01 f4 bc f8 d3 72 be 51 9e 29 be
       -0.1791784 -0.029785814 -0.23713672 -0.16564299
000010 4c 4e 10 be c0 00 cf bd a1 7a 4c be 77 93 6b bc
       -0.14092368 -0.10107565 -0.19968654 -0.01437842
000020 d0 07 bf bd 25 ac 07 bc e1 52 43 be c3 8b b5 3c
       -0.09327662 -0.008280789 -0.19074585 0.02216137
000030 be d8 a0 bd 07 ae 1f be 82 a8 a9 be cd 63 b0 bc
       -0.0785384 -0.1559373 -0.33136374 -0.021531964
000040 78 f7 1f 3d c5 56 e4 bd e9 7d 30 3e 98 73 99 bd
       0.039054364 -0.111493625 0.17235531 -0.07492751
000050 8e 8f 32 3e 1f 05 14 3d 67 cd d5 bd f0 49 44 3b
       0.17437574 0.036137696 -0.10439568 0.0029951297
000060 b5 12 18 3e 2a 00 fe bd fb 13 91 bd f2 8f 21 3e
       0.14850886 -0.12402375 -0.07083889 0.15777567
000070 d6 66 6b bc a0 44 04 bd e5 d9 77 be 88 f5 22 be
       -0.01436778 -0.03229201 -0.24204214 -0.15913975

batchnorm3.running_mean f4 [32]
000000 80 8f a4 c1 b4 43 0f c1 6f 84 32 c1 c4 ca cf c1
       -20.570068 -8.954029 -11.157332 -25.974007
000010 6b 33 17 c0 10 95 ae c0 f3 54 34 c1 d8 f4 4c c0
       -2.3625133 -5.455696 -11.27074 -3.202444
000020 c5 ee 5e 3f d7 74 37 c1 bd 34 bf bf 23 d0 30 c0
       0.87083083 -11.466025 -1.493797 -2.7627037
000030 00 6d bf c0 36 5d e7 bf 3d 72 73 c1 ef 36 a2 40
       -5.9820557 -1.8075321 -15.21539 5.0692058
000040 10 2a 6c c0 dd a5 68 c1 33 64 20 41 95 91 0d c1
       -3.6900673 -14.540494 10.024463 -8.8480425
000050 f0 aa 4d c0 e3 99 09 3e e9 a9 bf c0 9b 0d a2 c0
       -3.2135582 0.1343761 -5.989491 -5.064161
000060 42 0c bb 3e cc 0f 9a 40 8c 44 f3 c0 85 be c1 41
       0.3653279 4.8144283 -7.6021175 24.218027
000070 64 be c4 c0 a8 a7 eb bd f8 b6 0b c1 5a bb 8a bf
       -6.148241 -0.11506587 -8.73217 -1.0838425

batchnorm3.running_var f4 [32]
000000 66 77 98 42 b4 28 8d 42 a4 0d 56 42 2f 85 cb 42
       76.2332 70.5795 53.51332 101.760124
000010 86 37 55 42 1e 92 91 42 55 2a 94 42 10 bc 7a 42
       53.304222 72.785385 74.08268 62.683655
000020 1a c5 67 42 9b f7 64 42 9a 3f 6c 42 08 07 7c 42
       57.942482 57.241802 59.06211 63.006866
000030 61 41 53 42 8b 38 3c 42 35 98 87 42 34 a8 9a 42
       52.813847 47.055218 67.79728 77.32852
000040 d0 c4 73 42 ae 2f 8e 42 74 b4 92 42 6a be 6c 42
       60.9422 71.093124 73.35245 59.18595
000050 d8 b0 5e 42 26 46 41 42 2c 20 57 42 87 55 3a 42
       55.6727 48.318504 53.781418 46.583523
000060 b8 3b 4c 42 32 a5 81 42 cf ba 59 42 9e c9 ac 42
       51.05832 64.82265 54.43243 86.39378
000070 5b 0a 49 42 ba fc 5b 42 96 de 85 42 6f 3c 1d 42
       50.260113 54.996803 66.93474 39.309017

conv4.weight f4 [64, 32, 1, 1]
000000 1f 2c 55 be ca 8c 41 3f 81 6b 6b be 21 10 6b 3e
       -0.20817612 0.7560545 -0.22990228 0.22955371
000010 0b 82 42 be e9 8a fe be 0c 7b 4a 3c 28 af b9 3e
       -0.1899492 -0.49715355 0.012358438 0.36266446
000020 c1 be 83 be fe 71 22 3e e1 64 21 be 00 95 1b 3e
       -0.2573147 0.15863797 -0.15761138 0.15193558
000030 ff df 28 bf 67 ab 68 3f 74 dd 1c 3f c7 c6 d0 be
       -0.6596679 0.9088654 0.6127541 -0.40776655
000040 15 54 f1 be c7 23 8d 3e 18 3c b5 3d f5 95 36 be
       -0.47134462 0.27566358 0.088493526 -0.17830642
000050 5d 4e 16 3a 61 b7 5b bf 48 5a 6d 3d ad 0b dd be
       0.0005733723 -0.8582669 0.057947427 -0.4317297
000060 6b 18 21 bf e2 64 a6 3e 3a d9 c8 be 2e e8 f6 be
       -0.62927884 0.32498842 -0.3922823 -0.48224014
000070 cf f5 5f be c3 f3 51 be 7e 96 50 bd f9 68 c5 3e
       -0.21871112 -0.20503144 -0.05092477 0.3855665
000080 13 e6 7c bf 17 4c dd 3c 84 d7 a6 bd be e7 3b bf
       -0.98788565 0.027013822 -0.08146575 -0.73400486
000090 3d 35 80 be 4c 5e ab be 4c d1 24 3f 3f 37 8d 3d
       -0.25040618 -0.3347038 0.6438186 0.06895303
0000a0 fb 55 2f 3e bc d8 38 3f b7 f1 d7 be 2e 6a 8d 3d
       0.17122643 0.7220571 -0.421766 0.06905018
0000b0 ec 54 87 be ec ee 40 bf fa 59 3d bf f5 45 b2 bd
       -0.26431978 -0.75364566 -0.7396542 -0.087047495
0000c0 c0 38 8d 3e 17 45 e4 3e 80 ed fd 3c 55 2b d1 3e
       0.2758236 0.4458396 0.030997038 0.40853372
0000d0 2e 64 06 3e fc 96 9a 3c 5b 6e d7 be c7 d5 3b 3e
       0.13124153 0.018870823 -0.42076382 0.18343268
0000e0 ff 89 9d be 31 23 e8 bc d1 71 bb bd e6 1d 26 3f
       -0.30769345 -0.028337093 -0.09152568 0.6488937
0000f0 20 7e dd be d7 19 e2 bd 7f d7 bb 3e 99 3f ba be
       -0.43260288 -0.11040085 0.36687848 -0.36376646
000100 91 ed 12 3f 60 b4 08 bf 39 cb 26 bf cb 7a 27 be
       0.5739375 -0.5340023 -0.65153843 -0.16355436
000110 fc 87 d5 bd 80 96 9b 3e 18 93 ac 3e f5 69 cd be
       -0.104263276 0.3038826 0.33705974 -0.401199
000120 f5 0c 88 be e3 16 db 3d f5 e5 71 3e 9c aa f1 be
       -0.26572385 0.10697725 0.23622878 -0.47200477
000130 a8 74 72 bb 20 0f 23 3e 0e 24 94 bc c6 d9 72 3c
       -0.0036995802 0.15923738 -0.018083598 0.014822429
000140 e6 fc 04 3f c1 bd 04 bf 58 af d5 bd c5 f3 41 3f
       0.5194839 -0.5185204 -0.10433835 0.7576259
000150 fa 46 50 3e 91 8a 4d bf a3 67 89 bc 59 35 45 3d
       0.20339575 -0.8028956 -0.01677305 0.04814658
000160 22 6d 47 3e b5 12 a8 be 0d 4a 20 3e be d6 d3 3e
       0.19475225 -0.32826772 0.15653248 0.41374773
000170 b9 99 0b 3d 0f 4c 6f 3e 65 40 6f 3e f1 7c 3b be
       0.03408215 0.23368858 0.23364408 -0.1830938
000180 fb 52 31 3e 7a 4c 01 3f aa 7b a9 be ca 12 f6 bd
       0.17316811 0.5050732 -0.3310216 -0.120153025
000190 ca d4 9c bd 71 de 07 bf 90 cb fc be 68 e5 b1 3e
       -0.07657774 -0.53073794 -0.49374056 0.34745336
0001a0 85 32 2d be 86 a5 98 be 02 9d b8 3e a5 28 0a bf
       -0.16913803 -0.29813784 0.36057287 -0.5396827
0001b0 6f 18 d5 3c 32 24 47 be ba b8 3c bf de 19 f2 3e
       0.026012627 -0.19447401 -0.7371937 0.4728536
0001c0 a2 ff 2e be 57 a0 8b bc a8 c4 1b bd d6 e2 29 bf
       -0.17089704 -0.01704423 -0.038029343 -0.6636175
0001d0 65 cf 18 3e 33 51 11 3f 46 57 d0 3e 8b d6 6c 3f
       0.14922865 0.56764525 0.40691584 0.92514867
0001e0 3a c0 2d bf 7a 2a d1 3e 87 12 c4 3e 50 90 ce bd
       -0.6787144 0.4085272 0.38295385 -0.10086119
0001f0 f8 c9 f7 be d8 e1 99 3e 10 8a 2f be 7a 94 1f bf
       -0.48396277 0.30055118 -0.1714251 -0.6233593
000200 ee 8b cc be 99 97 a6 bd 03 96 45 3e 29 65 26 3f
       -0.39950508 -0.08134384 0.19295506 0.6499811
000210 73 6a ce be 8d 1e 01 3e cf 8d 36 3f 1d 01 f7 bd
       -0.4031559 0.1260931 0.7131013 -0.12060759
000220 c6 db 81 3e 74 4d 5a bf e9 5a 8d 3e c4 8b a1 3d
       0.25362986 -0.85274434 0.2760842 0.07887986
000230 96 ab 4e bd f8 0e bc bd 01 8d 36 3f 44 f1 4a 3e
       -0.050456606 -0.091825426 0.71308905 0.19818598
000240 df 8b b7 3d b3 fc 63 bd a2 90 69 bf 7a a7 31 bf
       0.08962225 -0.055660915 -0.9123632 -0.69396174
000250 b0 8f 8a bc 2b 11 1d 3e 6b 3f a8 bd 9a 40 99 3e
       -0.016914219 0.1533858 -0.08215221 0.299321
000260 8e 3e 14 3e 4f b3 28 be ef cb a8 3e 18 d9 f3 be
       0.14476988 -0.16474651 0.3296809 -0.47626567
000270 99 3a c8 3a dc 37 ab be 13 6a 62 bd 41 cf 0b 3f
       0.0015276253 -0.33441055 -0.05527694 0.5461312
000280 ba b4 47 bf cd c2 bb be a0 f3 1e be 27 03 99 3d
       -0.7801014 -0.3667206 -0.15522623 0.074713044
000290 64 df ad be 52 0e 18 be d6 59 a9 bd 3a fb 71 bf
       -0.33959496 -0.14849213 -0.08269088 -0.94523966
0002a0 26 72 82 3e 9d a7 23 3f 7c ae b2 bd 14 49 f2 3c
       0.25477713 0.6392763 -0.087246865 0.029575862
0002b0 68 ad 2a 3e 0b 6b 21 3e b2 2b 2a bf de 2f 00 be
       0.16667712 0.1576349 -0.66472924 -0.1251826
0002c0 82 b0 0a 3e 10 08 9d 3e 7f f2 e3 3d a6 34 26 be
       0.13543895 0.30670214 0.11130237 -0.16231021
0002d0 e4 e2 0f be 6f 3f 9b 3e a0 1a 88 bd 87 eb c0 3e
       -0.14051396 0.30321833 -0.06645703 0.37679693
0002e0 65 ae 03 3f c3 13 e2 be 37 a8 d2 be 03 51 0f be
       0.5143798 -0.44155702 -0.41143963 -0.13995747
0002f0 84 07 21 bf 78 78 07 be e4 27 16 be c2 be 5a bf
       -0.6290209 -0.13229549 -0.14663655 -0.85447323
000300 99 5e f0 bc 50 12 38 bf a2 9f e0 bd 0c 9e 1e be
       -0.029341983 -0.7190294 -0.109679475 -0.15489978
000310 b4 a3 04 3e d7 32 f6 bd 1f 22 64 be a3 b4 2d 3f
       0.12953073 -0.12021416 -0.22278641 0.67853755
000320 67 02 de bd 03 a7 3b 3d 1e 26 cb be 3e c9 e0 bd
       -0.10840302 0.04581357 -0.3967752 -0.10975884
000330 1e ed 9c 3e d3 7e ec be bf 89 35 3e 59 39 f5 be
       0.30649656 -0.4619051 0.17728327 -0.47895315
000340 2f 06 97 be 36 2d e4 3e cd 0b bf 3e 54 4f ac be
       -0.29496905 0.44565743 0.3731369 -0.33654273
000350 bc 20 b8 bd b7 45 8d be 02 3f ad be 13 61 ed bd
       -0.089906186 -0.2759225 -0.33837134 -0.11590781
000360 2d 6d 1a 3e a9 bf 91 3f 90 57 de 3e 04 b2 da 3e
       0.1508071 1.1386615 0.4342618 0.4271394
000370 e3 a8 0f 3f c2 ae 6c bd 01 71 22 be fb 14 c7 be
       0.56117076 -0.05778385 -0.1586342 -0.38883194
000380 18 fc 06 3e e0 e3 d3 3d 6e d7 72 be 88 b0 34 3d
       0.13182104 0.10346198 -0.23714992 0.044113666
000390 c7 31 69 3e 7c 63 2c 3e e6 e0 6a be 81 ed 0f bf
       0.22772895 0.16834825 -0.22937354 -0.5622178
0003a0 df 56 87 3e db 8d 91 be 1f 65 96 bf 63 85 26 3e
       0.26433465 -0.2842854 -1.174961 0.1626182
0003b0 d8 a3 73 3e 66 c7 c4 3e 1a d9 07 be 57 2b 25 be
       0.2379297 0.3843338 -0.13266411 -0.16129814
0003c0 3e 92 47 be d6 11 23 3e e8 25 62 3f 78 df c1 be
       -0.1948938 0.15924773 0.8833909 -0.37865806
0003d0 f3 b2 15 3f 2d 1c 91 be 24 84 8e be 2f f9 b4 be
       0.5847618 -0.2834181 -0.2783519 -0.35346362
0003e0 7c 11 d1 bc 49 34 47 3e 10 9c 59 bf 33 61 3c 3e
       -0.025521033 0.19453539 -0.8500376 0.18396454
0003f0 8c 4b b0 be d6 39 eb 3b cb c7 50 bf ce 23 39 3e
       -0.34432638 0.0071785254 -0.8155486 0.18080065

conv4.bias f4 [64]
000000 5d a9 77 3e e7 9c f0 3d 74 ab 84 bb ad 0b a0 bd
       0.241857 0.11748677 -0.004048759 -0.07814727
000010 41 07 9c be 36 03 4f 3f 3a 07 ab bd e8 49 63 3e
       -0.30474284 0.80864275 -0.08350988 0.22196162
000020 57 d0 0a 3e 05 c5 09 3f 70 22 35 3e c5 4a 22 3e
       0.13556038 0.5381625 0.17688918 0.15848835
000030 28 6a 57 3f 7d da 5d 3d 3a 32 c4 3d 28 c1 90 3c
       0.84146357 0.054163445 0.095798925 0.01767023
000040 6c f5 8f be 4e 7e 4b bf c9 01 5c 3e 87 d2 46 be
       -0.2811693 -0.794896 0.21485056 -0.19416247
000050 59 0b 48 be 33 6c 68 be 61 af 7a 3f c1 de 1d be
       -0.19535579 -0.22697525 0.97923857 -0.15417005
000060 14 2a b6 be ec b1 d6 3e a6 a2 7b be 48 ca 17 be
       -0.35578978 0.4193262 -0.24573764 -0.14823258
000070 8a ed 2a 3e 94 b0 03 3f 2a 74 f5 3e 3d 54 e3 3e
       0.16692176 0.5144131 0.4794019 0.44400206
000080 fe 2f 50 3e fa b2 0b 3f 88 f8 d7 3d 0b 5a 6e 3d
       0.20330808 0.5456997 0.105454504 0.05819134
000090 78 03 9a bd 6d a2 67 bd 5a 37 12 3e 31 4d 9c 3e
       -0.07520193 -0.056551386 0.14278927 0.30527642
0000a0 ef b1 6b bd 9a 2d 80 3e 1c 81 12 3f b3 81 5d bd
       -0.057542738 0.2503479 0.57228255 -0.05407877
0000b0 f3 2e c1 be 4d 3d c6 3e c5 2b 6a bc 0f bd 13 be
       -0.37731132 0.38718644 -0.014292662 -0.14427589
0000c0 f4 e4 c7 3e f5 11 38 3e ef f4 4c bf 0f 3f 64 3e
       0.39041865 0.179756 -0.8006124 0.2228968
0000d0 3b 2e 2c 3e 4c 3c 42 3f 7e 4d 86 be d6 87 42 be
       0.1681451 0.75873256 -0.26230997 -0.1899713
0000e0 24 8f 55 be e5 cf bc 3e 7d 21 16 be 18 66 a0 bc
       -0.20855385 0.3687736 -0.14661212 -0.019579932
0000f0 16 a1 ab 3e 59 20 18 3f 41 1b e8 bd e9 8a 45 be
       0.33521336 0.5942436 -0.11333323 -0.19291271

fc1.weight f4 [64, 64]
000000 77 30 3c 3e 9c 48 2e be cb 66 db bc 06 49 f9 be
       0.18377863 -0.17019886 -0.026782414 -0.48688525
000010 f7 90 89 3e ec 4c be bd 17 9a 4f 3e 60 59 ac 3e
       0.26868412 -0.092920154 0.20273624 0.33661938
000020 8e 5f 45 be c8 43 11 3e 06 46 94 3e 59 d3 85 3e
       -0.19274732 0.14186013 0.28959674 0.26137808
000030 d2 fd 5d be e0 f6 dc be 08 07 be be a0 2e 59 3e
       -0.21678856 -0.431571 -0.3711474 0.21209192
000040 23 68 f3 3e 71 38 c6 be 4d 40 a7 3d ca b3 8b bd
       0.47540388 -0.38714936 0.08166561 -0.068214014
000050 e9 86 0d 3e d4 c8 06 bf be da 62 be df da b2 bd
       0.13820995 -0.5265019 -0.22153756 -0.087331526
000060 80 c9 06 3f 06 1b 53 3d 9d 55 ec 3d 66 5d dd bd
       0.52651215 0.051539443 0.11539767 -0.1080883
000070 2d c3 1f 3d 4e 14 71 3f be 54 eb bd 2b fe 19 be
       0.039004494 0.9417161 -0.11490773 -0.15038364
000080 f5 50 01 bf 9e 73 0b be e4 ee 09 3f 04 2d e5 be
       -0.50514156 -0.13618323 0.53880143 -0.44760907
000090 f6 ed 1c bf c4 86 92 3e dd c1 5e 3e 4f d3 b8 bc
       -0.613006 0.28618443 0.2175364 -0.022561697
0000a0 05 4a f8 3e 9f 5d 49 bf c3 72 e2 be 10 53 ad be
       0.48493972 -0.7865848 -0.4422818 -0.33852434
0000b0 0e 31 d5 3e db 5b 3d 3e 84 9b 1a 3e 75 06 bd bd
       0.41638988 0.18492071 0.15098387 -0.09229747
0000c0 f8 68 cf be e7 6c b5 be 2c f1 1d be cb 1b 17 bb
       -0.40509772 -0.35434648 -0.15424031 -0.0023057337
0000d0 83 f3 e7 be 87 f7 48 be b6 18 11 be 0b b4 27 bd
       -0.45302972 -0.19625674 -0.14169583 -0.040943187
0000e0 8b c6 86 be 50 81 62 be 90 61 e8 be 14 5d 11 be
       -0.2632335 -0.22119641 -0.45386934 -0.14195663
0000f0 87 94 62 3e d8 03 77 be e9 13 f4 3e ee bb a6 3e
       0.22126971 -0.2412256 0.4767144 0.32565254
000100 63 f5 4f 3d 72 5a 34 bd 51 f7 19 be 94 13 45 3d
       0.05077113 -0.044031568 -0.1503575 0.048114374
000110 3f c2 de 3d 59 3c bb 3c 80 0e a0 3d cf 66 ff bc
       0.10876893 0.022855924 0.07815266 -0.031176953
000120 85 fb d4 bd 02 0d 89 3d 25 02 8b bc a6 7c a1 3d
       -0.10399536 0.06691934 -0.016968796 0.07885103
000130 b1 d0 e8 bd c6 72 a9 3d 8b f9 07 3c 58 ba f1 3a
       -0.1136793 0.082738444 0.008299242 0.0018442376
000140 db 02 16 be 92 9c 9f bd ab 91 3e be d8 a9 a2 bd
       -0.14649527 -0.07793535 -0.18610255 -0.079425514
000150 5a 87 f7 3d b4 91 b3 bd 18 ed ff bd 60 4e a6 3d
       0.12086363 -0.08768025 -0.12496394 0.081204176
000160 45 c8 93 3d 80 f8 78 3d e3 9b c5 bd 4c 8f 18 be
       0.07215933 0.060783863 -0.09648874 -0.14898413
000170 d5 c6 cf 3c bd 4d c4 3b 24 d8 b5 bd 77 34 32 3d
       0.025363365 0.0059907124 -0.08879116 0.043507066
000180 47 fb 28 be cc 4c a7 bc 1f f0 3e be cc 2b 0e be
       -0.16502105 -0.020422362 -0.18646286 -0.13883895
000190 5f a1 00 be 75 67 55 bd 62 3a 00 be 8e 8a d1 3d
       -0.12561558 -0.052100617 -0.12522271 0.10231505
0001a0 b3 45 cc bd ff b8 98 3c 65 cd bb ba d3 fc e5 bb
       -0.099742316 0.0186429 -0.001432818 -0.0070186644
0001b0 00 86 7a bd 16 65 6e 3d aa 67 92 bd 99 8e bc 3c
       -0.06116295 0.05820187 -0.071486786 0.023017215
0001c0 3f a2 9e bd 14 94 b8 3c f6 39 94 3d 71 c1 bf bb
       -0.0774579 0.022531547 0.07237618 -0.0058519174
0001d0 7c c3 58 bd d5 d1 f7 bd 7f 9d 75 3d 23 d7 24 bd
       -0.052920803 -0.12100569 0.059964653 -0.040244233
0001e0 94 dc 6e 3c 58 59 2a bd a0 d7 1e bd 94 86 f8 bd
       0.014578957 -0.04158911 -0.038779855 -0.12135044
0001f0 6f d3 9a bd a5 32 d6 bd 50 4f 2a bd 21 01 bc 3c
       -0.07559859 -0.104588784 -0.041579545 0.022949757
000200 bb 29 c4 be 7d cf b5 3d 7d ec ce be 5a fe f9 be
       -0.38313088 0.08877466 -0.404148 -0.48826867
000210 33 3d 17 3f 9a db 8e be ae 38 1a 3f b1 29 11 be
       0.5907776 -0.27901918 0.60242736 -0.1417606
000220 17 3f da 3d 38 57 29 3e e7 3e 79 bd fa 47 dc 3e
       0.10656565 0.16537178 -0.060851004 0.43023664
000230 6d a5 76 3f 1b f9 c4 be 70 81 44 3d 0c 8d 48 3f
       0.9634617 -0.38471302 0.047975004 0.7834022
000240 50 d5 38 3d 42 f6 fc 3c 23 78 87 3e c0 94 d3 be
       0.045125306 0.030879144 0.26458845 -0.41324425
000250 f9 7c d0 bc 36 a8 ba bd ff cb 07 3f 0a 9f 45 3e
       -0.025450217 -0.09114115 0.5304565 0.1929895
000260 35 a6 12 bf e7 7c 26 3f 9d 11 2d bf 3a 1e 2f 3d
       -0.5728486 0.65034336 -0.67605 0.042753436
000270 ee 9d 35 3f ad 9d 1d be f5 9c 4e 3d 8a 28 84 3d
       0.70944107 -0.1539218 0.050442655 0.06453045
000280 eb f8 22 3e 62 d0 25 bc 3e 28 2c bf dd 5b 0c 3e
       0.15915267 -0.010120483 -0.67248905 0.13706918
000290 8f bb ab 3d e3 98 3d be 1d b7 fe 3c 12 11 eb be
       0.08385383 -0.18515353 0.031093175 -0.4591146
0002a0 9a 66 e6 be 5f 55 fe 3d fc 70 0a be 71 2b ef 3e
       -0.45000154 0.12418627 -0.13519663 0.4671283
0002b0 41 80 8a bd a4 b5 b9 bd 03 b7 08 be 6f dd 20 3f
       -0.06762744 -0.09067848 -0.13351063 0.6283788
0002c0 f9 e1 2c be 18 47 17 3d f3 95 a9 be bc 8f 87 bd
       -0.16883077 0.036933035 -0.33122215 -0.06619212
0002d0 6b 2e a6 be 4e da 2e 3e d4 a4 90 bd 59 46 16 bf
       -0.3245729 0.17075464 -0.070626885 -0.5870109
0002e0 e7 4b b2 be 19 38 a0 bc ae 8c ff 3e 0c 1f 05 3c
       -0.34823534 -0.019558 0.49912018 0.008125078
0002f0 61 99 de bd fb af 0c bf 13 c5 1f bf 59 fa b2 bc
       -0.108690985 -0.54956025 -0.62410086 -0.02184789
000300 41 1c e4 3d 37 4e 55 be 72 48 a4 be a0 c9 02 3e
       0.111382015 -0.20830618 -0.3208652 0.12772226
000310 80 ae a3 3e ad 9a 38 be 19 76 ab be 18 37 70 be
       0.3196907 -0.18027754 -0.3348854 -0.23458517
000320 06 e5 f1 3e a8 20 c7 3e c9 64 d1 3e 0a e9 f3 be
       0.47245044 0.38892102 0.40897205 -0.47638732
000330 fd 85 99 be 95 5e 56 bf a5 ec e6 bc 24 9b 8d be
       -0.29985037 -0.8373807 -0.028189013 -0.27657425
000340 25 6f 31 bd 4c f0 26 3f a9 76 41 bf b5 a1 84 3d
       -0.043318886 0.65210414 -0.75571686 0.06476156
000350 c5 37 d3 bd 78 a3 36 bf 40 80 32 3e 0e d8 16 be
       -0.103133716 -0.71343184 0.17431736 -0.14730856
000360 de 43 64 be e9 fb cb 3e a6 f3 42 be ec c9 e2 3d
       -0.22291514 0.3984063 -0.19038257 0.1107367
000370 ab 6b 8d be 30 3d dc 3e 55 a2 31 bd 4a 8e 5f 3e
       -0.27621207 0.43015432 -0.043367703 0.21831623
000380 b5 a1 d6 3e 16 70 ba 3d e9 88 0b bf 0a 84 b7 be
       0.41920248 0.0910341 -0.54505783 -0.35842925
000390 b0 77 70 3c da 13 d9 3e b6 dc 7a be 93 b2 05 3f
       0.014676973 0.42397958 -0.24498257 0.5222561
0003a0 41 0e 55 3e 4a 69 65 3e 8b a3 0e 3f f2 43 52 be
       0.20806219 0.22403446 0.55718297 -0.20533732
0003b0 10 1d 8c bd c9 5d 67 bf 05 db 30 3d 0f c2 81 be
       -0.06841481 -0.9037748 0.043177623 -0.25343367
0003c0 bd f2 dd 3e c7 02 90 3d 14 7a cc 3e 39 0d 23 3e
       0.43349257 0.0703178 0.39936888 0.15923013
0003d0 2d 43 a2 be 0c 28 ba be a1 44 c0 be 5f 3a 27 3e
       -0.31691876 -0.36358678 -0.3755236 0.1633086
0003e0 a1 9d e7 3d 22 ff 8e 3d c5 58 17 bf 75 ef 91 be
       0.11309362 0.069822565 -0.59119827 -0.28503004
0003f0 39 66 2f 3f 1f 30 74 3e 94 10 a2 be a1 07 b1 3d
       0.68515354 0.23846482 -0.31653273 0.08644033

fc1.bias f4 [64]
000000 3f 6e 1e 3c 4f b3 08 be fb d6 da be 28 61 cd 3d
       0.009669839 -0.13349651 -0.42742142 0.10028297
000010 cc 33 02 3f 55 2b 98 be 3f f7 65 3d 08 96 a3 3e
       0.50860286 -0.2972056 0.056143995 0.31950402
000020 2b e4 08 3f 75 ef a7 3e e9 75 db 3e 94 e7 06 3f
       0.53473157 0.3279988 0.42863396 0.5269711
000030 11 64 a2 3e 1e db da 3e 9f c6 cb bd 37 25 ce 3e
       0.3171697 0.42745298 -0.09949993 0.40262768
000040 6e f0 0b be 0e 61 10 3e 7d ed 83 bd 30 cd 9d 3e
       -0.13665935 0.14099523 -0.06441782 0.30820608
000050 a2 40 43 3f 4a fc 14 bf 76 c7 56 3e 7d 0a 90 3f
       0.76270497 -0.5819746 0.20974526 1.1253201
000060 7f 93 d8 bd af dd 30 3e 56 04 f7 3d 5c b4 87 bd
       -0.10575008 0.17272066 0.12061374 -0.06626198
000070 f4 b0 47 3e dd ba ee 3e 70 ec 47 3e 3f a9 89 3e
       0.19501096 0.4662694 0.19523787 0.26886937
000080 fe da b7 bd b5 75 32 bd 7e 09 aa 3e e8 94 92 3e
       -0.08977316 -0.043569285 0.33210367 0.2862923
000090 f4 ae a9 be 96 0e a3 3d 4a 3c d7 3e a8 a1 26 be
       -0.3314129 0.079617664 0.42038184 -0.16272604
0000a0 0f 9d e6 3e 87 67 2f be 5e 30 cd 3e 7a 21 a9 bd
       0.450417 -0.17129336 0.40075964 -0.08258338
0000b0 b5 95 dc 3e a1 11 1e bd a5 17 2f 3d d3 0f 0a be
       0.43082967 -0.03859103 0.04274716 -0.13482599
0000c0 e3 4d ef 3d 74 5b 4c bd b8 90 00 3b 1c a1 07 3e
       0.116847776 -0.049891904 0.001961751 0.13245052
0000d0 eb 7d 15 be 22 ec 3b 3e e1 33 e3 be ac bd 66 bd
       -0.14598815 0.18351796 -0.44375518 -0.05633323
0000e0 7b a5 14 be af b2 ab bd 29 af 14 3f 09 28 32 3d
       -0.14516251 -0.083836906 0.58079773 0.04349521
0000f0 fc 2e 80 3e 6d 2c 62 be b4 db fa 3d 9a 63 c8 3e
       0.25035846 -0.2208726 0.12248936 0.3913849
